…
2026-06-19 17:30:23 INFO     dataset: home
2026-06-19 17:30:23 INFO     user number: 66485
2026-06-19 17:30:23 INFO     item number: 28238
2026-06-19 17:30:23 INFO     average seq length: 8.2271
2026-06-19 17:30:23 INFO     density: 0.0003 sparsity: 0.9997
2026-06-19 17:30:23 INFO     data after augmentation:
2026-06-19 17:30:23 INFO     train samples: 347521	eval samples: 66485	test samples: 66485
2026-06-19 17:30:23 INFO     [1] Model Architecture ------------------------
2026-06-19 17:30:23 INFO     total parameters: 4017792
2026-06-19 17:30:23 INFO     KGSCL(
  (loss_fct): CrossEntropyLoss()
  (item_embedding): Embedding(28239, 128, padding_idx=0)
  (position_embedding): Embedding(50, 128)
  (input_layer_norm): LayerNorm((128,), eps=1e-12, elementwise_affine=True)
  (input_dropout): Dropout(p=0.5, inplace=False)
  (trm_encoder): Transformer(
    (encoder_layers): ModuleList(
      (0-1): 2 x EncoderLayer(
        (attn_layer_norm): LayerNorm((128,), eps=1e-12, elementwise_affine=True)
        (pff_layer_norm): LayerNorm((128,), eps=1e-12, elementwise_affine=True)
        (self_attention): MultiHeadAttentionLayer(
          (fc_q): Linear(in_features=128, out_features=128, bias=True)
          (fc_k): Linear(in_features=128, out_features=128, bias=True)
          (fc_v): Linear(in_features=128, out_features=128, bias=True)
          (attn_dropout): Dropout(p=0.5, inplace=False)
          (fc_o): Linear(in_features=128, out_features=128, bias=True)
        )
        (pff): PointWiseFeedForwardLayer(
          (fc1): Linear(in_features=128, out_features=512, bias=True)
          (fc2): Linear(in_features=512, out_features=128, bias=True)
        )
        (hidden_dropout): Dropout(p=0.5, inplace=False)
        (pff_out_drop): Dropout(p=0.5, inplace=False)
      )
    )
  )
  (nce_loss): InfoNCELoss(
    (criterion): CrossEntropyLoss()
  )
  (cross_entropy): CrossEntropyLoss()
)
2026-06-19 17:30:23 INFO     Start training...
2026-06-19 17:30:24 INFO     KGSCL epoch 0: position_mode=random, loss_rec=10.2747, loss_v2v=13.9129, loss_v2t=10.2726
…
